…
          "base_uri": "https://localhost:8080/"
        },
        "id": "99tDHQBjd_S9",
        "outputId": "b7ac6790-bd7c-4aa5-ca4b-83afa5830167"
      },
      "outputs": [
        {
          "name": "stdout",
          "output_type": "stream",
          "text": [
            "Model: \"sequential_1\"\n",
            "_________________________________________________________________\n",
            " Layer (type)                Output Shape              Param #   \n",
            "=================================================================\n",
            " conv2d_3 (Conv2D)           (None, 176, 176, 32)      2432      \n",
            "                                                                 \n",
            " max_pooling2d_3 (MaxPooling  (None, 88, 88, 32)       0         \n",
            " 2D)                                                             \n",
            "                                                                 \n",
            " conv2d_4 (Conv2D)           (None, 84, 84, 64)        51264     \n",
            "                                                                 \n",
            " max_pooling2d_4 (MaxPooling  (None, 42, 42, 64)       0         \n",
            " 2D)                                                             \n",
            "                                                                 \n",
            " conv2d_5 (Conv2D)           (None, 38, 38, 128)       204928    \n",
            "                                                                 \n",
            " max_pooling2d_5 (MaxPooling  (None, 19, 19, 128)      0         \n",
            " 2D)                                                             \n",
            "                                                                 \n",
            " dropout_1 (Dropout)         (None, 19, 19, 128)       0         \n",
            "                                                                 \n",
            " flatten_1 (Flatten)         (None, 46208)             0         \n",
            "                                                                 \n",
            " dense_2 (Dense)             (None, 128)               5914752   \n",
            "                                                                 \n",
            " dense_3 (Dense)             (None, 9)                 1161      \n",
            "                                                                 \n",
            "=================================================================\n",
            "Total params: 6,174,537\n",
            "Trainable params: 6,174,537\n",
            "Non-trainable params: 0\n",
            "_________________________________________________________________\n"
          ]
        }
…
